TDs/TD1/mymodel.pkl (torch, 8136 bytes, 5 tensors)

weight f4 [32, 1]
0	0xbfbcd8b0	-1.4753628
1	0x3f350977	0.7071757
2	0x3f8fb858	1.1228132
3	0x3f9ba7f1	1.2160627
4	0x3fb811aa	1.4380391
5	0x3fad8949	1.3557521
6	0xbf948768	-1.1603823
7	0x3f781aa6	0.9691566
8	0xbfac3359	-1.345317
9	0xbf8b2792	-1.0871451
10	0x3fb38af2	1.4026778
11	0x3f7cf892	0.9881679
12	0xbfbb5c3a	-1.463752
13	0xbfa1eb15	-1.2649866
14	0xbf08280d	-0.5318611
15	0xbf448b1b	-0.7677476
16	0x3f1f04e8	0.6211686
17	0x3fb9aeee	1.4506509
18	0x3f9425c2	1.1574023
19	0x3fa401e6	1.2813079
20	0x3f597e3f	0.8495826
21	0x3f392826	0.72326887
22	0x3fb0615d	1.3779713
23	0x3fb3f6e9	1.4059726
24	0x3fa2dc3b	1.2723459
25	0xbfb9917c	-1.4497523
26	0xbf37b917	-0.717668
27	0xbf2b207c	-0.6684644
28	0xbf892839	-1.07154
29	0xbf02acf9	-0.51045185
30	0xbf502383	-0.81304187
31	0xbeaad260	-0.33363628

bias f4 [32]
0	0xbe81f41f	-0.25381562
1	0x3ef5f7d6	0.48040646
2	0xbf318416	-0.6934217
3	0xbc4c12c8	-0.01245565
4	0x3f18d1ee	0.5969533
5	0x3c9a88cd	0.01886406
6	0xbf031eb8	-0.5121875
7	0x3e9b14b1	0.30289224
8	0x3e44bd35	0.19212802
9	0x3e07fda8	0.13280356
10	0xbf35c08e	-0.7099694
11	0xbf26494f	-0.6495561
12	0x3f027860	0.5096493
13	0xbe916c4a	-0.2840293
14	0xbeb831f1	-0.35975602
15	0xbe4e1b1d	-0.2012753
16	0xbdf03f93	-0.11730876
17	0x3e03224c	0.12806052
18	0xbf4c3aa8	-0.79777
19	0xbe408112	-0.18799236
20	0xbf1d87e2	-0.61535466
21	0x3f115f6a	0.56786215
22	0xbd85809b	-0.0651867
23	0xbeff726c	-0.49891984
24	0x3da9390a	0.082628325
25	0x3f067f8b	0.52538365
26	0xbf3aeff5	-0.73022395
27	0x3f573e4d	0.8407944
28	0x3f0d4676	0.5518564
29	0x3f243b78	0.6415324
30	0x3f5825ad	0.8443249
31	0x3f303658	0.6883292

weight f4 [32, 32]
0	0xbea35507	-0.31900808
1	0x3d114289	0.035463843
2	0x3e4be517	0.1991161
3	0x3e01a937	0.12662207
4	0x3d1f6208	0.03891185
5	0x3e986938	0.29767776
6	0xbe54650b	-0.2074167
7	0x3e1bec8f	0.15226959
8	0xbee3597c	-0.4440421
9	0xbea23b30	-0.3168578
10	0x3e4b7049	0.19867052
11	0x3d13962c	0.036031887
12	0xbea14326	-0.31496543
13	0xbe92252d	-0.28543988
14	0xbe22e8b8	-0.15909088
15	0xbe80d076	-0.25159043
16	0x3de6287c	0.112381905
17	0x3d411cd4	0.047146633
18	0x3d7787cd	0.060432244
19	0x3e927af2	0.28609425
20	0x3e43c2e7	0.19117318
21	0x3e2b1562	0.16707376
22	0x3be876f1	0.007094257
23	0x3eb0eec3	0.3455716
24	0x3dc5d07a	0.096589044
25	0xbe8533d6	-0.2601611
26	0xbd347e5d	-0.044065822
27	0x3d26158f	0.040547904
28	0xbe19b2db	-0.15009634
29	0xbc5a9c47	-0.0133429235
30	0xbd29df1f	-0.04147255
31	0x3dcb9b5f	0.09941744
32	0x3ec33948	0.3812964
33	0xbb9c54db	-0.0047708577
34	0xbe992e57	-0.29918167
35	0xbe2efe94	-0.17089301
36	0xbe6f48d8	-0.23367631
37	0xbe62f4e9	-0.22163738
38	0x3ec6afd5	0.38806024
39	0xbe299f36	-0.1656464
40	0x3eee7fd8	0.46581912
41	0x3e66c91d	0.22537656
42	0xbed21af2	-0.41036183
43	0xbe111421	-0.14167835
44	0x3e8b5048	0.27209687
45	0x3e801bf2	0.2502132
46	0x3d5f15bd	0.05446409
47	0x3ebc94b9	0.36832216
48	0x3cb3e241	0.021958472
49	0xbea81820	-0.32830906
50	0xbe7e9379	-0.24860944
51	0xbe9a1d4f	-0.30100486
52	0xbe98b487	-0.2982523
53	0xbd863429	-0.065529175
54	0xbea28986	-0.31745547
55	0xbe407528	-0.18794692
56	0xbe529228	-0.20563567
57	0x3e96fa5a	0.29487878
58	0x3dc760c9	0.09735257
59	0x3e9483b9	0.29006746
60	0x3d2a95bb	0.0416467
61	0x3e3d9006	0.18511972
62	0x3e8ef298	0.2791946
63	0x3e55d168	0.20880663
64	0x3e8a9396	0.27065724
65	0xbd4717e5	-0.048606772
66	0xbe0afd16	-0.13573107
67	0xbdef6988	-0.1169005
68	0xbdc1a65c	-0.09455559
69	0xbe71be14	-0.23607665
70	0x3eadc123	0.33936414
71	0xbde88c61	-0.113549
72	0x3eec702f	0.4617934
73	0x3e82f39d	0.25576487
74	0xbead81c9	-0.3388808
75	0xbe917c29	-0.2841504
76	0x3e0db6a0	0.13839197
77	0x3eedafd2	0.46423203
78	0x3b32d4b0	0.0027287416
79	0x3da4ec01	0.08052827
80	0xbe4a3546	-0.19746885
81	0xbe4c12bd	-0.19929023
82	0xbeda4517	-0.42630836
83	0xbebae7a5	-0.36504856
84	0xbd0a7d6e	-0.033811025
85	0xbe12627c	-0.14295381
86	0xbe90d2e3	-0.28285894
87	0xbe43b3fd	-0.19111629
88	0xbd9556c9	-0.072919436
89	0x3e9d78c1	0.3075619
90	0x3ebf5744	0.37371266
91	0x3e2c303e	0.16815278
92	0x3e844898	0.25836635
93	0x3e21542f	0.1575477
94	0x3e86c1c1	0.26319697
95	0xbc5e8b06	-0.01358295
96	0x3e768748	0.24075043
97	0x3d92dd92	0.071711674
98	0xbe36502c	-0.1780402
99	0xbda76947	-0.08174377
100	0xbe600034	-0.21875077
101	0xbe0748b2	-0.13211325
102	0x3ec25021	0.37951759
103	0xbe88b17b	-0.26697907
104	0x3e51d43c	0.20491117
105	0x3e8f7277	0.28017017
106	0xbeefbed9	-0.46825293
107	0xbdf7eeb1	-0.12106074
108	0x3ea46269	0.3210633
109	0x3ebcb140	0.3685398
110	0x3e720672	0.23635271
111	0x3dfb8a53	0.122822426
112	0xbdabed06	-0.08394818
113	0xbdb1f88a	-0.08689983
114	0xbea3ac0b	-0.31967196
115	0xbeb4dc27	-0.35324213
116	0xbe84fc06	-0.2597353
117	0xbe34465c	-0.17604965
118	0xbe4b393a	-0.19846049
119	0xbebc4018	-0.3676765
120	0xbeac3694	-0.3363539
121	0x3e7c549a	0.24641648
122	0x3ebb8de6	0.36631697
123	0x3e894407	0.26809713
124	0x3ea120d5	0.3147036
125	0x3e7add8b	0.24498574
126	0x3df3b38e	0.11899482
127	0x3e29adf4	0.16570264
128	0x3eaf36a7	0.34221384
129	0xbe488fb7	-0.19586073
130	0xbeda3e6c	-0.4262575
131	0xbe849d65	-0.25901332
132	0xbe01f901	-0.12692644
133	0xbda452aa	-0.080235794
134	0x3e7839a6	0.24240741
135	0xbd40ca0b	-0.047067683
136	0x3f0280d1	0.5097781
137	0x3e0bf2f3	0.13666897
138	0xbeb2a7f2	-0.34893757
139	0xbe9f63f8	-0.31130958
140	0x3ed1ba4f	0.40962455
141	0x3e83d9f9	0.25752237
142	0x3da8ffb3	0.08251896
143	0x3dce65f3	0.10078039
144	0xbe4564c2	-0.19276717
145	0xbdd6ecca	-0.10494383
146	0xbe2fe05b	-0.17175429
147	0xbe00927d	-0.12555881
148	0xbe080df1	-0.13286568
149	0x3db2c281	0.08728505
150	0xbe8a1358	-0.26967883
151	0xbe9df15f	-0.30848214
152	0xbd735a2f	-0.059412178
153	0x3edb8d85	0.42881408
154	0x3e987fd5	0.29785028
155	0x3e84aaef	0.25911662
156	0x3e4206e4	0.18947941
157	0x3e83dec3	0.2575589
158	0x3e096faf	0.1342151
159	0xbdae2c76	-0.08504574
160	0xbeac1c55	-0.33615366
161	0x3d6c52f0	0.057696283
162	0x3dfd2f1b	0.123625
163	0x3d73f3f8	0.05955884
164	0x3e600ee5	0.21880682
165	0x3e3a64a4	0.18202454
166	0xbe692606	-0.22768411
167	0x3e2c003d	0.16796966
168	0xbe6c3a1c	-0.23069042
169	0xbe9fc9e2	-0.31208712
170	0x3e7c8241	0.24659063
171	0x3e9916b2	0.29900128
172	0xbe881553	-0.2657877
173	0xbee6b6a0	-0.45061207
174	0xbdaf908b	-0.08572491
175	0xbe1fac47	-0.15593062
176	0xbc1e3403	-0.009655955
177	0x3e1d661d	0.15370984
178	0x3dc6d44a	0.0970846
179	0x3ea73a7f	0.32661816
180	0x3ea1fed9	0.31639746
181	0xbe272be0	-0.1632533
182	0x3de7332a	0.11289056
183	0x3e8abda2	0.27097803
184	0x3d4e97aa	0.050437607
185	0xbe517f33	-0.20458679
186	0xbdd666a7	-0.10468798
187	0xbe1fe714	-0.15615493
188	0xbe582f1f	-0.21111725
189	0xbca0a510	-0.019609958
190	0xbe2935e1	-0.1652446
191	0xbc522c89	-0.012828001
192	0xbef1bc7a	-0.4721411
193	0xbd197272	-0.03746266
194	0x3e433d7b	0.19066422
195	0x3e45aeaf	0.19304918
196	0x3e8a82ee	0.27053016
197	0x3ea84195	0.32862535
198	0xbe4df0a1	-0.20111324
199	0xbc0b4cf3	-0.008502233
200	0xbef7b12f	-0.48377368
201	0xbe8c9c19	-0.27462843
202	0x3e5a27cf	0.21304248
203	0x3e99eb0e	0.30062145
204	0xbec6807e	-0.38769907
205	0xbe6049d6	-0.21903166
206	0xbd2ab16d	-0.041673113
207	0xbe55a192	-0.20862415
208	0x3e722d33	0.23650055
209	0x3e11e0c7	0.14245902
210	0x3ea1925c	0.31556976
211	0x3eb0eb70	0.34554625
212	0x3e4167aa	0.18887201
213	0xbdadbbcf	-0.08483087
214	0x3d6c84d5	0.057743866
215	0x3eabdd3c	0.33567226
216	0x3ea1c513	0.31595668
217	0xbe096805	-0.13418587
218	0xbeb6254e	-0.35575336
219	0x3c5a44c5	0.01332206
220	0xbe5c2fcc	-0.21502608
221	0xbe256c29	-0.16154541
222	0xbe7ad276	-0.24494347
223	0xbe1733ef	-0.14765905
224	0xbe379ab4	-0.17930108
225	0xbb746ccc	-0.0037296293
226	0x3eae7691	0.34074834
227	0x3dbd616f	0.092470996
228	0x3e55d436	0.20881733
229	0x3ea0daac	0.31416833
230	0xbebc0403	-0.3672181
231	0x3c0acb71	0.008471356
232	0xbedf566d	-0.43620625
233	0xbe95c615	-0.29252687
234	0x3ed61cf8	0.41818976
235	0x3e086a37	0.13321768
236	0xbe817dce	-0.25291294
237	0xbecad9b6	-0.39619225
238	0xbd986200	-0.07440567
239	0xbe1fe162	-0.1561332
240	0x3e630573	0.22170047
241	0x3e82d490	0.25552797
242	0x3ea4d095	0.32190385
243	0x3d70772f	0.058707412
244	0x3e75d28e	0.24006101
245	0xbd886eda	-0.06661768
246	0x3e6a5862	0.22885278
247	0x3eba7a82	0.3642159
248	0x3e55c3c3	0.20875458
249	0xbe3c299b	-0.18375246
250	0xbeb24542	-0.34818465
251	0xbdda5f16	-0.106626675
252	0xbe8012cf	-0.2501435
253	0xbdfa042b	-0.12207826
254	0xbe135922	-0.1438947
255	0xbe1c5ef6	-0.152706

bias f4 [32]
0	0xbe59d3af	-0.21272157
1	0x3e134869	0.14383091
2	0x3e2e3ce0	0.1701541
3	0x3e02a912	0.12759808
4	0xbd87c1b7	-0.06628745
5	0xbcdfd216	-0.027321856
6	0xbe38105a	-0.17974988
7	0xbe4bafbf	-0.1989126
8	0xbe19669f	-0.14980553
9	0x3dd5ae4e	0.104336366
10	0x3e03b102	0.12860492
11	0x3e211365	0.15730055
12	0xbd99ecee	-0.07515894
13	0x3dc50c87	0.0962153
14	0xbe095a6b	-0.13413398
15	0x3d456653	0.048193287
16	0xbcaa8cc2	-0.020819072
17	0x3d8ea620	0.069652796
18	0x3dde52eb	0.10855659
19	0xbceb676a	-0.028735835
20	0xbd9b9d80	-0.075984
21	0x3d5bf7de	0.05370318
22	0xbe64638c	-0.22303599
23	0xbd4041b3	-0.046937656
24	0xbd28eaab	-0.04123942
25	0x3d966113	0.07342734
26	0x3cdbd0ad	0.026832903
27	0xbd7e791b	-0.062127214
28	0x3dacb89a	0.084336475
29	0x3db8a367	0.090155415
30	0x3c2e9051	0.010654525
31	0xbcaac920	-0.020847857

weight f4 [1, 32]
0	0xbe63c4c9	-0.22243036
1	0x3ec8c607	0.39213583
2	0x3e7fb1c6	0.24970159
3	0x3e96fd9d	0.29490367
4	0x3e257479	0.16157712
5	0xbe0c4177	-0.13696848
6	0xbe2395ca	-0.15975109
7	0xbe96e197	-0.29468986
8	0xbe1bfc3e	-0.15232942
9	0xbdc0f261	-0.0942123
10	0xbe1e3829	-0.15451111
11	0x3e9e3ecd	0.30907288
12	0x3e902a8e	0.28157467
13	0x3e83a17d	0.25709143
14	0xbe8647b4	-0.2622658
15	0xbe0e45c0	-0.13893795
16	0xbe7be3e3	-0.2459865
17	0x3e574e14	0.21025878
18	0xbe2f3af0	-0.17112327
19	0x3e961d1e	0.2931909
20	0xbde5ef7e	-0.1122732
21	0x3ea4fb5e	0.32223028
22	0xbe3f29d6	-0.18668303
23	0xbe851639	-0.25993517
24	0xbe50a598	-0.20375669
25	0x3e8b8216	0.27247685
26	0x3e9a19db	0.3009785
27	0xbe29a48d	-0.16566677
28	0x3e4c0787	0.19924746
29	0x3e5cbfd8	0.21557558
30	0x3e5097e2	0.20370439
31	0x3e66680e	0.22500631
